bad.model.pth (torch, 930722 bytes, 14 tensors)

layers.model.input_normalization.batch_norm.weight f4 [257]
0	0x3f7af5fc	0.9803159
1	0x3f7d8cf7	0.9904322
2	0x3f8068e5	1.0032011
3	0x3f79e252	0.9761096
4	0x3f805e94	1.0028863
5	0x3f790a8c	0.9728172
6	0x3f806b2f	1.003271
7	0x3f807d1c	1.003818
8	0x3f81a88c	1.0129561
9	0x3f824246	1.0176475
10	0x3f7f78ba	0.9979359
11	0x3f7733c2	0.9656335
12	0x3f81481d	1.0100132
13	0x3f7d270e	0.9888772
14	0x3f7d2292	0.98880875
15	0x3f7f4bdf	0.99725145
16	0x3f805f77	1.0029134
17	0x3f7b281e	0.9810809
18	0x3f783aab	0.9696452
19	0x3f80e7b3	1.0070709
20	0x3f8090d5	1.0044199
21	0x3f788a5d	0.97086126
22	0x3f79a84e	0.9752244
23	0x3f7df039	0.99194676
24	0x3f79d128	0.9758477
25	0x3f7d1b97	0.98870224
26	0x3f7cb3f2	0.98712075
27	0x3f7fd6be	0.99937046
28	0x3f7f9ec4	0.9985163
29	0x3f7e2984	0.992821
30	0x3f791021	0.97290236
31	0x3f7ee45a	0.99567187
32	0x3f7a1a48	0.9769635
33	0x3f7daa0c	0.99087596
34	0x3f773060	0.9655819
35	0x3f7aca8f	0.9796533
36	0x3f7efff6	0.99609315
37	0x3f822cba	1.01699
38	0x3f788178	0.97072554
39	0x3f81f3d5	1.0152537
40	0x3f7d0de7	0.9884934
41	0x3f7c557d	0.98567945
42	0x3f7e6aba	0.993816
43	0x3f806fd7	1.0034131
44	0x3f7b8055	0.98242694
45	0x3f774b9e	0.9659976
46	0x3f778801	0.966919
47	0x3f7f52b8	0.99735594
48	0x3f7c2a87	0.9850239
49	0x3f7eeb43	0.9957773
50	0x3f7b71ee	0.9822072
51	0x3f7dcd96	0.99141824
52	0x3f803d1e	1.0018651
53	0x3f775538	0.9661441
54	0x3f7b1ac4	0.98087716
55	0x3f8042a6	1.002034
56	0x3f7d5430	0.98956585
57	0x3f80d11e	1.0063818
58	0x3f827ab7	1.01937
59	0x3f7cc42a	0.9873682
60	0x3f8207a9	1.0158588
61	0x3f7e2c29	0.99286133
62	0x3f7b5837	0.9818148
63	0x3f7f392b	0.99696606
64	0x3f80c624	1.0060468
65	0x3f824239	1.017646
66	0x3f81694a	1.0110257
67	0x3f80d84e	1.0066011
68	0x3f81b7c1	1.0134202
69	0x3f80a80f	1.0051287
70	0x3f81c44c	1.013803
71	0x3f81aacf	1.0130252
72	0x3f7985a9	0.97469574
73	0x3f7d5c15	0.9896863
74	0x3f821b47	1.0164574
75	0x3f7fa66f	0.9986333
76	0x3f80c5ad	1.0060326
77	0x3f7a849a	0.97858584
78	0x3f815f75	1.0107256
79	0x3f7e4e47	0.9933819
80	0x3f7cb983	0.9872057
81	0x3f7aec00	0.9801636
82	0x3f7a8844	0.97864175
83	0x3f8135ea	1.0094578
84	0x3f817f95	1.011706
85	0x3f7e4402	0.9932252
86	0x3f80f6ec	1.0075355
87	0x3f82cf9e	1.021961
88	0x3f7e5aab	0.993571
89	0x3f82c877	1.0217427
90	0x3f8170bc	1.0112529
91	0x3f82a9e7	1.02081
92	0x3f836cf9	1.0267631
93	0x3f7dbd84	0.991173
94	0x3f82b846	1.0212486
95	0x3f7dfc55	0.99213153
96	0x3f825bed	1.0184304
97	0x3f82ccd5	1.021876
98	0x3f8106ad	1.0080162
99	0x3f82013e	1.0156629
100	0x3f8080ec	1.0039344
101	0x3f813180	1.0093231
102	0x3f810719	1.0080291
103	0x3f7e321b	0.99295205
104	0x3f82fc3b	1.0233225
105	0x3f7f66de	0.9976634
106	0x3f7bbcc6	0.9833492
107	0x3f7e05b1	0.99227434
108	0x3f80d057	1.006358
109	0x3f808492	1.0040457
110	0x3f7f8b21	0.9982167
111	0x3f80a6b8	1.0050879
112	0x3f801293	1.0005668
113	0x3f8307d4	1.0236764
114	0x3f7b21f7	0.980987
115	0x3f7f7ccc	0.997998
116	0x3f7d1f24	0.9887564
117	0x3f7fe4a6	0.99958265
118	0x3f7e1869	0.99255997
119	0x3f81aaa8	1.0130205
120	0x3f83c1da	1.0293534
121	0x3f7be1c9	0.98391396
122	0x3f831307	1.0240182
123	0x3f801d25	1.0008894
124	0x3f820a6f	1.0159434
125	0x3f81e90c	1.0149245
126	0x3f7dd6bc	0.99155784
127	0x3f7ff257	0.99979156
128	0x3f822fd2	1.0170844
129	0x3f81c283	1.0137485
130	0x3f81f908	1.0154123
131	0x3f801a66	1.0008056
132	0x3f81e8a4	1.0149121
133	0x3f819f22	1.0126688
134	0x3f803146	1.0015037
135	0x3f8196fc	1.0124202
136	0x3f8442f5	1.0332934
137	0x3f81d55e	1.014324
138	0x3f7c2a25	0.9850181
139	0x3f837cff	1.0272521
140	0x3f81ef81	1.0151216
141	0x3f80b7e5	1.005612
142	0x3f817749	1.0114528
143	0x3f830f29	1.0239002
144	0x3f811631	1.0084897
145	0x3f7fbf8d	0.9990166
146	0x3f818e24	1.0121503
147	0x3f7dae0d	0.99093705
148	0x3f7d0404	0.9883425
149	0x3f7f8efa	0.9982754
150	0x3f845161	1.0337335
151	0x3f841a45	1.0320517
152	0x3f83ef03	1.0307316
153	0x3f82f237	1.0230168
154	0x3f83c9e0	1.0295982
155	0x3f82d4d4	1.02212
156	0x3f82a993	1.0208
157	0x3f7d40b8	0.9892688
158	0x3f841fa3	1.0322155
159	0x3f7f8807	0.99816936
160	0x3f821e46	1.0165489
161	0x3f83895f	1.0276297
162	0x3f7da75a	0.99083483
163	0x3f807855	1.0036722
164	0x3f80be6f	1.0058116
165	0x3f7cea73	0.9879524
166	0x3f839e4e	1.0282686
167	0x3f82fed0	1.0234013
168	0x3f82e41b	1.0225862
169	0x3f7f57d6	0.997434
170	0x3f810d95	1.008227
171	0x3f7fd0bd	0.99927884
172	0x3f7c8e95	0.9865506
173	0x3f7dd1d9	0.9914833
174	0x3f84331a	1.0328095
175	0x3f81633f	1.0108413
176	0x3f7bd836	0.98376787
177	0x3f81fa1f	1.0154456
178	0x3f827001	1.0190431
179	0x3f825376	1.018172
180	0x3f815a5d	1.0105702
181	0x3f83499c	1.0256839
182	0x3f7c07a8	0.9844918
183	0x3f77930e	0.9670876
184	0x3f8321f9	1.0244743
185	0x3f828135	1.0195681
186	0x3f833acc	1.0252318
187	0x3f81023e	1.0078809
188	0x3f81e9e6	1.0149505
189	0x3f822663	1.0167965
190	0x3f778135	0.9668153
191	0x3f7a9803	0.978882
192	0x3f7ad433	0.9798004
193	0x3f828961	1.0198175
194	0x3f82ff81	1.0234224
195	0x3f80fa74	1.0076432
196	0x3f7fad71	0.99874026
197	0x3f831a87	1.024247
198	0x3f8232de	1.0171773
199	0x3f7eef21	0.9958363
200	0x3f7a4514	0.97761655
201	0x3f7d7879	0.9901195
202	0x3f7cbae1	0.98722655
203	0x3f78df72	0.9721595
204	0x3f7db5ab	0.9910533
205	0x3f7b4b1d	0.9816149
206	0x3f7b02df	0.98051256
207	0x3f7e665b	0.9937493
208	0x3f7be235	0.9839204
209	0x3f7d6e48	0.989964
210	0x3f78a732	0.9713012
211	0x3f7abe2c	0.9794643
212	0x3f7ac0c8	0.9795041
213	0x3f7d1f71	0.988761
214	0x3f7bb8ef	0.9832906
215	0x3f7f3517	0.99690384
216	0x3f7ab9ee	0.97939956
217	0x3f7b72aa	0.9822184
218	0x3f7d0cf8	0.98847914
219	0x3f7e6bb4	0.9938309
220	0x3f7ef798	0.9959655
221	0x3f7e4a81	0.99332434
222	0x3f810357	1.0079144
223	0x3f809ca1	1.0047799
224	0x3f7beff4	0.98413014
225	0x3f7de0fa	0.9917141
226	0x3f81b1ca	1.0132382
227	0x3f7f6880	0.9976883
228	0x3f8219ee	1.0164163
229	0x3f7ee2c5	0.9956477
230	0x3f7ef729	0.99595886
231	0x3f828799	1.0197631
232	0x3f81c40d	1.0137955
233	0x3f7e39a9	0.9930673
234	0x3f7fa769	0.9986482
235	0x3f7bc1c8	0.9834256
236	0x3f7eb28a	0.9949118
237	0x3f813003	1.0092777
238	0x3f81b8a8	1.0134478
239	0x3f7d1d3b	0.9887273
240	0x3f7ea504	0.99470544
241	0x3f80f2f7	1.0074147
242	0x3f810962	1.0080988
243	0x3f80452c	1.002111
244	0x3f8017b8	1.0007238
245	0x3f7f4ec5	0.9972957
246	0x3f7fbf3c	0.99901175
247	0x3f800000	1.0
248	0x3f800000	1.0
249	0x3f800000	1.0
250	0x3f800000	1.0
251	0x3f800000	1.0
252	0x3f800000	1.0
253	0x3f800000	1.0
254	0x3f800000	1.0
255	0x3f800000	1.0

layers.model.input_normalization.batch_norm.bias f4 [257]
0	0xbd18f4c4	-0.0373428
1	0x3cd6ad1c	0.026205592
2	0x3d278d0f	0.04090601
3	0x3ce9ef3f	0.028556464
4	0x3d434938	0.04767725
5	0xbc2f0dd4	-0.010684449
6	0x3d41cd7b	0.047315102
7	0x3d47f42a	0.048816837
8	0x3d3ae221	0.04562581
9	0x3d3dc499	0.04633007
10	0x3d02bd9d	0.03191911
11	0x3cffc33a	0.031221021
12	0x3d4401c4	0.047853246
13	0x3d3f6ded	0.046735693
14	0x3d3fb34e	0.046801858
15	0x3d0787d4	0.03308852
16	0x3d01d611	0.03169829
17	0x3cd25561	0.025675477
18	0x3ced0fce	0.0289382
19	0x3d180651	0.0371154
20	0x3d3d84bb	0.04626916
21	0x3b4c133e	0.00311394
22	0x3c80b07a	0.01570915
23	0x3d1b5373	0.03792138
24	0x3d260fa1	0.04054225
25	0x3d2fe3c6	0.04294183
26	0x3d34027c	0.04394768
27	0x3d321c9f	0.043484326
28	0x3d3cee9f	0.046126004
29	0x3d39211a	0.045197584
30	0x3d40e4d8	0.047093242
31	0x3d38a28e	0.0450769
32	0x3cc57a65	0.024106214
33	0x3d30b740	0.04314351
34	0x3d0f14ab	0.03493182
35	0xbcabc8eb	-0.020969829
36	0x3d32d04c	0.04365568
37	0x3d3ed660	0.046591163
38	0x3d14c179	0.036317322
39	0x3d3ce474	0.046116307
40	0xbd0fbf77	-0.035094704
41	0x3ce514d6	0.027964037
42	0x3d32f5f9	0.04369161
43	0x3cbe32dd	0.023217613
44	0xbcb94ad4	-0.022618689
45	0x3cbe8afc	0.023259632
46	0x3aa2af0f	0.0012411791
47	0x3d279ad8	0.040919155
48	0x3d33a212	0.043855734
49	0x3d020023	0.03173841
50	0xbb30823f	-0.0026933101
51	0xbcd5debf	-0.02610719
52	0xbce2ccf7	-0.027685625
53	0x3d38ebf3	0.045146894
54	0xbcab4b1b	-0.020909837
55	0xbc47a91e	-0.012186317
56	0x3d2a4964	0.041573897
57	0x3d317935	0.043328483
58	0xbd1094a5	-0.03529801
59	0x3d0b9c36	0.03408452
60	0xbd303e1f	-0.043027993
61	0x3d04f5cd	0.032460976
62	0x3d021770	0.031760633
63	0x3cce56ab	0.02518781
64	0xbd0857bd	-0.0332868
65	0xbd0335b6	-0.032033645
66	0xbd1dfdf8	-0.03857228
67	0x3cea5ca7	0.028608633
68	0x3d18195e	0.037133567
69	0xbd000034	-0.031250194
70	0x3bc8bc95	0.0061259964
71	0x3d2cb263	0.04216231
72	0x3d294576	0.04132601
73	0x3d17cc31	0.037059966
74	0x3d3564d9	0.04428563
75	0x3d33c965	0.043893237
76	0x3cc9255c	0.024553947
77	0xbcde1ca8	-0.027113274
78	0x3d33fceb	0.043942373
79	0x3d12fa68	0.035883337
80	0x3d2e3909	0.04253486
81	0x3d25d387	0.04048493
82	0x3d161f87	0.03665116
83	0xbd00a651	-0.03140861
84	0x3c5f2b61	0.013621182
85	0xbc5a28f8	-0.013315432
86	0x3b026bdd	0.0019900717
87	0x3d342060	0.043976188
88	0xbd0c4c46	-0.034252428
89	0x3ce71710	0.02820924
90	0xbbdd2390	-0.006748624
91	0xbd114402	-0.035465248
92	0xbd127bf5	-0.035762746
93	0xbd148812	-0.03626258
94	0xbd230e53	-0.039808583
95	0x3d2fb30d	0.042895366
96	0xbccc9a36	-0.024975877
97	0xbd12edc8	-0.035871297
98	0xbd034f36	-0.032057963
99	0xbbf45c9a	-0.007457328
100	0xbcc87462	-0.024469558
101	0xbd04e7be	-0.03244757
102	0xbd03bff3	-0.03216548
103	0x3d2af22f	0.04173487
104	0xbd2c28e0	-0.04203117
105	0x3c0e6c34	0.00869279
106	0x3d3b25e1	0.04569042
107	0x3c97d908	0.018536106
108	0x3d286cda	0.041119434
109	0xbd28ac4f	-0.04117995
110	0xbd271a9f	-0.040796872
111	0xbd31768f	-0.043325957
112	0x3d1ed13b	0.038773756
113	0x3d11b551	0.035573307
114	0xbcca3929	-0.02468546
115	0x3cb7667c	0.022387736
116	0x3d218f61	0.039443377
117	0xbd13b236	-0.036058627
118	0x39c68725	0.00037866193
119	0xbcd569ff	-0.02605152
120	0x3d0f2898	0.034950823
121	0x3aaf34ef	0.0013367216
122	0xbcf23252	-0.02956501
123	0xbd2dae85	-0.042402763
124	0xbd2951ed	-0.041337896
125	0xbd31739c	-0.043323144
126	0xbd03890b	-0.032113116
127	0xbd187ef7	-0.037230458
128	0xbd1e2e0d	-0.038618136
129	0xbd371b92	-0.044704027
130	0xbc9dde38	-0.019271001
131	0x3ba22e08	0.004949335
132	0x3c223a9b	0.009901668
133	0x3d34aca8	0.04410997
134	0xbd3c7e2e	-0.04601877
135	0x3cd4d019	0.025978135
136	0x3ca8894c	0.02057328
137	0xbd2eec9c	-0.042706117
138	0xbd169d94	-0.036771372
139	0x3d1d744d	0.03844099
140	0xbd1c82cc	-0.038210675
141	0xbd1f0be3	-0.038829695
142	0xbd385d7f	-0.04501104
143	0x3d08aac4	0.03336598
144	0xbcf4ec05	-0.0298977
145	0x3d126bd1	0.035747353
146	0x3d179366	0.037005804
147	0x3d169666	0.036764525
148	0x3d05e989	0.03269342
149	0xbd1106fb	-0.035407048
150	0xbc73c4e8	-0.014878489
151	0x3cc8fdce	0.024535086
152	0xbc69d873	-0.014272797
153	0x3d2209e5	0.039560217
154	0xbcfaf07d	-0.030632252
155	0xbc42475b	-0.011857833
156	0xbd1257f3	-0.035728406
157	0xbd1c3a71	-0.03814167
158	0x3cb25f1f	0.021773873
159	0xbcf091a8	-0.02936633
160	0xbb862c1f	-0.004094615
161	0xbcadeba5	-0.021230528
162	0x3d35b8eb	0.044365805
163	0x3babb77c	0.005240379
164	0xbb587550	-0.0033028908
165	0xbcd7c0bd	-0.026337022
166	0xbc8fa45c	-0.017534427
167	0xbd0af7a5	-0.03392758
168	0xbd0ad52c	-0.033894703
169	0xbd3e41dd	-0.04644953
170	0x3c4f4fac	0.012653273
171	0x3c924b67	0.01785822
172	0xbced5c2d	-0.028974617
173	0xbd3705fd	-0.044683445
174	0xbd1e9168	-0.03871289
175	0xbd3fc493	-0.046818327
176	0xbd350b81	-0.044200424
177	0x3d218b17	0.039439287
178	0xbd2906d9	-0.041266296
179	0x392f2104	0.000167016
180	0xbd2b9ff1	-0.04190058
181	0xbd317f96	-0.043334566
182	0xbd3d2fd2	-0.046188183
183	0xbd226066	-0.039642714
184	0xbd37ae60	-0.04484403
185	0xbd386c7e	-0.04502534
186	0xbd1e9a8b	-0.038721602
187	0xbd1408e3	-0.036141288
188	0xbd339454	-0.04384263
189	0xbcffabc9	-0.031209843
190	0xbd16744f	-0.036732014
191	0xbb9fe25d	-0.0048792795
192	0xbd3be87d	-0.045876015
193	0xbd17e19b	-0.03708039
194	0xbd21c826	-0.039497517
195	0xbc0722ca	-0.00824804
196	0xbd0237bb	-0.03179143
197	0xbd36e220	-0.044649243
198	0xbd320fca	-0.04347209
199	0xbd3cfd50	-0.046140015
200	0xbd3d0697	-0.046148863
201	0xbd247404	-0.040149704
202	0xbd21c073	-0.039490175
203	0x3cbc11f3	0.022957778
204	0x3d192bf2	0.037395425
205	0xbd1c0a0c	-0.03809552
206	0x3cd14862	0.02554721
207	0xbca1ea61	-0.01976508
208	0x3d2a01db	0.041505676
209	0xbd1de9d7	-0.038553085
210	0xbd1e18d9	-0.038597915
211	0x3d2713b4	0.040790275
212	0x3d338e6b	0.043836992
213	0xbc57842b	-0.01315407
214	0x3c72124b	0.014774869
215	0xbbcb121a	-0.0061972262
216	0x3d182aac	0.03715007
217	0x3cba81e6	0.022767019
218	0xbd36c650	-0.04462272
219	0x3c4d74ec	0.012540083
220	0xbcfb3dba	-0.030669082
221	0x3cede31c	0.029038958
222	0xbd2fd5d1	-0.04292852
223	0xbccdaa00	-0.025105476
224	0x3d44e32b	0.048068207
225	0x3d222914	0.039589956
226	0xbd32d35f	-0.04365861
227	0xbc1f1ffb	-0.009712215
228	0xbd20c2ce	-0.03924828
229	0x3b36bb6c	0.0027882708
230	0x3ca2e298	0.019883439
231	0xbd3b3b5e	-0.045710914
232	0xbd3ecc0a	-0.046581306
233	0x3cde9af4	0.027173497
234	0x3c9ef980	0.01940608
235	0x3d3c182d	0.045921493
236	0x3d1d6927	0.03843036
237	0xbcd3e636	-0.025866609
238	0xbd407267	-0.046984103
239	0x3d38df02	0.04513455
240	0x3ce96a7a	0.028493155
241	0xbd18bff8	-0.03729245
242	0xbd345b64	-0.04403247
243	0xbbb10f16	-0.0054034097
244	0xbc07acc0	-0.008280933
245	0x3d31b0c0	0.043381453
246	0x3c40e65c	0.011773672
247	0x3d2b88ef	0.041878637
248	0x3d05564b	0.032553
249	0xbd3e3ae4	-0.04644288
250	0x3d3ae889	0.04563192
251	0xbd3cca2b	-0.04609124
252	0xbd381935	-0.044945914
253	0xbd3eed37	-0.046612944
254	0xbd3ab435	-0.045582015
255	0xbd338f98	-0.043838114

layers.model.input_normalization.batch_norm.running_mean f4 [257]
0	0xc20e2d94	-35.54451
1	0xc1e1c2c0	-28.220093
2	0xc1fa5a70	-31.294159
3	0xc20a85cb	-34.630657
4	0xc2138344	-36.87819
5	0xc21a23e6	-38.535057
6	0xc21d2952	-39.29035
7	0xc21ff11b	-39.985455
8	0xc225f9a0	-41.493774
9	0xc22b638f	-42.847225
10	0xc230714c	-44.11064
11	0xc2339d34	-44.90352
12	0xc2362c11	-45.543034
13	0xc23868c5	-46.102314
14	0xc23acc18	-46.69931
15	0xc23f6384	-47.847183
16	0xc240b29e	-48.17443
17	0xc2423d05	-48.55959
18	0xc2438035	-48.875202
19	0xc2470a62	-49.76014
20	0xc248f3ae	-50.23797
21	0xc24bcab9	-50.94797
22	0xc24e6ded	-51.60735
23	0xc24cfef3	-51.248974
24	0xc24f2a5e	-51.791374
25	0xc250f526	-52.239403
26	0xc252763f	-52.615475
27	0xc250aa53	-52.166332
28	0xc2514db0	-52.325867
29	0xc2535b52	-52.83918
30	0xc2544933	-53.071484
31	0xc2544168	-53.063873
32	0xc257b1b4	-53.92354
33	0xc25a290a	-54.540077
34	0xc2596424	-54.347794
35	0xc25b3e96	-54.81112
36	0xc25be4df	-54.973507
37	0xc25ccb74	-55.198685
38	0xc25e66bf	-55.600338
39	0xc25f28e9	-55.78995
40	0xc25fb320	-55.924927
41	0xc25f39c8	-55.806427
42	0xc2615c03	-56.339855
43	0xc261eed0	-56.483215
44	0xc2638098	-56.87558
45	0xc264ce7a	-57.201637
46	0xc264bb43	-57.182873
47	0xc269855c	-58.380234
48	0xc269da9e	-58.463493
49	0xc26acfa6	-58.70278
50	0xc26ce18a	-59.220253
51	0xc26e7068	-59.60977
52	0xc270bcdc	-60.184433
53	0xc2725e5e	-60.592155
54	0xc271bb0b	-60.43266
55	0xc2720e22	-60.5138
56	0xc2744860	-61.07068
57	0xc27491fc	-61.142563
58	0xc2760a70	-61.510193
59	0xc2784674	-62.0688
60	0xc2790616	-62.255943
61	0xc27852fd	-62.081043
62	0xc27903d4	-62.25374
63	0xc27994b7	-62.39523
64	0xc2797856	-62.367516
65	0xc2799374	-62.393997
66	0xc27ae0a1	-62.719364
67	0xc27c1f6a	-63.030678
68	0xc27b8f98	-62.89023
69	0xc27b156c	-62.77092
70	0xc27cfc80	-63.246582
71	0xc27e2854	-63.539383
72	0xc27e0a97	-63.51034
73	0xc27d3b36	-63.307823
74	0xc27edfab	-63.718426
75	0xc2804249	-64.12946
76	0xc2803262	-64.098404
77	0xc2805faf	-64.18688
78	0xc280d278	-64.41107
79	0xc2814bde	-64.64818
80	0xc2816f49	-64.717354
81	0xc281292e	-64.58043
82	0xc2805c9d	-64.180885
83	0xc281452e	-64.63512
84	0xc282525c	-65.16086
85	0xc28248a6	-65.14189
86	0xc2823652	-65.106094
87	0xc282c37c	-65.381805
88	0xc282ff38	-65.498474
89	0xc28344dd	-65.6345
90	0xc283aafa	-65.83394
91	0xc283b122	-65.84596
92	0xc2840ac4	-66.02103
93	0xc2848879	-66.26655
94	0xc284aa60	-66.33276
95	0xc284a931	-66.33045
96	0xc284e1ae	-66.44078
97	0xc28560d2	-66.6891
98	0xc285a8e7	-66.82989
99	0xc285d2b9	-66.91157
100	0xc2858f56	-66.77995
101	0xc2859d58	-66.80731
102	0xc285e438	-66.94574
103	0xc285dcbb	-66.931114
104	0xc28636b8	-67.10687
105	0xc2866b44	-67.2095
106	0xc286d9b0	-67.42517
107	0xc2872b00	-67.583984
108	0xc2870204	-67.50394
109	0xc286afd6	-67.34343
110	0xc2871370	-67.537964
111	0xc287b7de	-67.859116
112	0xc287d05a	-67.90694
113	0xc2885353	-68.16274
114	0xc288a5a4	-68.32352
115	0xc288e7d7	-68.45281
116	0xc2890787	-68.5147
117	0xc2890e21	-68.527596
118	0xc289668e	-68.7003
119	0xc289754f	-68.72912
120	0xc289bdd5	-68.870766
121	0xc289de5f	-68.93432
122	0xc289bf16	-68.873215
123	0xc28a0256	-69.00456
124	0xc28a3b8b	-69.116295
125	0xc28ac004	-69.37503
126	0xc28b25cb	-69.573814
127	0xc28b86a4	-69.76297
128	0xc28bf0f4	-69.97061
129	0xc28c3a3a	-70.11372
130	0xc28c2453	-70.070946
131	0xc28c2e0b	-70.08993
132	0xc28c5014	-70.1564
133	0xc28ce20d	-70.441505
134	0xc28d414e	-70.62755
135	0xc28d6c6b	-70.711754
136	0xc28da15e	-70.81517
137	0xc28dd342	-70.91261
138	0xc28dfb38	-70.99066
139	0xc28e7104	-71.22073
140	0xc28e9d4c	-71.30722
141	0xc28eb842	-71.35988
142	0xc28eeea6	-71.46611
143	0xc28f1065	-71.53202
144	0xc28f32f6	-71.59953
145	0xc28f69de	-71.70677
146	0xc28fac36	-71.83635
147	0xc29025b7	-72.07366
148	0xc2907d64	-72.2449
149	0xc290ec44	-72.46146
150	0xc29127ad	-72.57749
151	0xc2913325	-72.59989
152	0xc29164ae	-72.69664
153	0xc291c684	-72.887726
154	0xc2921ce9	-73.056465
155	0xc292abde	-73.33568
156	0xc292f288	-73.473694
157	0xc2930ddc	-73.52707
158	0xc293068d	-73.512794
159	0xc29306cc	-73.513275
160	0xc2936721	-73.70142
161	0xc29395b6	-73.792404
162	0xc293cca5	-73.8997
163	0xc293fb78	-73.99115
164	0xc293d19b	-73.909386
165	0xc294113c	-74.03366
166	0xc2945b1c	-74.17795
167	0xc294ae48	-74.34039
168	0xc2951afa	-74.55269
169	0xc2955554	-74.66666
170	0xc2956973	-74.705956
171	0xc295e643	-74.94973
172	0xc2962b80	-75.08496
173	0xc2966c89	-75.21198
174	0xc2968731	-75.264046
175	0xc2968284	-75.25491
176	0xc296b7f5	-75.35929
177	0xc29712e3	-75.53689
178	0xc2973f9a	-75.62422
179	0xc29763b9	-75.69477
180	0xc297aac2	-75.83351
181	0xc297d43a	-75.914505
182	0xc298168a	-76.04402
183	0xc2985bcb	-76.17928
184	0xc2985684	-76.168976
185	0xc29894e1	-76.29078
186	0xc298c42f	-76.38317
187	0xc2990ca3	-76.52468
188	0xc2992b60	-76.58472
189	0xc2996300	-76.69336
190	0xc299c0c6	-76.87651
191	0xc299f3d0	-76.9762
192	0xc29a3f62	-77.123795
193	0xc29a74d1	-77.22816
194	0xc29a8ce8	-77.27521
195	0xc29aa615	-77.32438
196	0xc29b1d03	-77.55666
197	0xc29be384	-77.94437
198	0xc29e0782	-79.01466
199	0xc29e87cd	-79.265236
200	0xc29eab24	-79.33426
201	0xc29ec136	-79.377365
202	0xc29ecc39	-79.39887
203	0xc29ed0d2	-79.40785
204	0xc29eda2b	-79.42611
205	0xc29eeccf	-79.46252
206	0xc29ef6be	-79.48192
207	0xc29ef7f4	-79.48428
208	0xc29efdec	-79.49594
209	0xc29f09b5	-79.51896
210	0xc29f0eb7	-79.52874
211	0xc29f1126	-79.53349
212	0xc29f17bf	-79.54638
213	0xc29f2132	-79.564835
214	0xc29f2d88	-79.58893
215	0xc29f3974	-79.61221
216	0xc29f39b6	-79.61272
217	0xc29f3d65	-79.61991
218	0xc29f4941	-79.643074
219	0xc29f5957	-79.67449
220	0xc29f6e9f	-79.71606
221	0xc29f7779	-79.733345
222	0xc29f801f	-79.75024
223	0xc29f82f3	-79.75576
224	0xc29f830b	-79.75594
225	0xc29f830c	-79.75595
226	0xc29f8313	-79.756004
227	0xc29f8313	-79.756004
228	0xc29f8317	-79.756035
229	0xc29f8323	-79.75613
230	0xc29f8321	-79.75611
231	0xc29f832f	-79.75622
232	0xc29f8327	-79.75616
233	0xc29f832a	-79.75618
234	0xc29f8331	-79.75623
235	0xc29f832e	-79.75621
236	0xc29f832e	-79.75621
237	0xc29f832e	-79.75621
238	0xc29f832a	-79.75618
239	0xc29f8331	-79.75623
240	0xc29f8333	-79.75625
241	0xc29f833a	-79.7563
242	0xc29f8345	-79.756386
243	0xc29f8349	-79.75642
244	0xc29f8352	-79.756485
245	0xc29f8356	-79.756516
246	0xc29f835a	-79.756546
247	0xc29f835a	-79.756546
248	0xc29f835a	-79.756546
249	0xc29f835a	-79.756546
250	0xc29f835a	-79.756546
251	0xc29f835a	-79.756546
252	0xc29f835a	-79.756546
253	0xc29f835a	-79.756546
254	0xc29f835a	-79.756546
255	0xc29f835a	-79.756546

layers.model.input_normalization.batch_norm.running_var f4 [257]
0	0x431ff54e	159.95822
1	0x42b26a9e	89.20824
2	0x42a13e3a	80.62154
3	0x429ceef0	78.466675
4	0x429f6cab	79.71224
5	0x429c9668	78.29376
6	0x42a60349	83.00642
7	0x42ab2700	85.57617
8	0x42b256b0	89.16931
9	0x42b7e4d7	91.94695
10	0x42b66b08	91.209045
11	0x42b03a87	88.11431
12	0x42ae728e	87.22374
13	0x42bcd9a0	94.42505
14	0x42be8b44	95.272
15	0x42acfda3	86.495384
16	0x42a97817	84.73455
17	0x42b47733	90.23281
18	0x42b8775e	92.23314
19	0x42b47742	90.232925
20	0x42b28c9d	89.274635
21	0x42b537bf	90.60888
22	0x42b35697	89.66912
23	0x42b92575	92.57316
24	0x42bb7722	93.73268
25	0x42b98170	92.75281
26	0x42bc3f23	94.123314
27	0x42bb4feb	93.65609
28	0x42b8acb5	92.33732
29	0x42c1200e	96.56261
30	0x42bb1525	93.5413
31	0x42b56a94	90.70816
32	0x42b7b176	91.8466
33	0x42b6cb8d	91.39756
34	0x42ba968f	93.29406
35	0x42bb9c96	93.80583
36	0x42c2a650	97.32483
37	0x42c23e30	97.12146
38	0x42c0689d	96.20432
39	0x42c6cd6b	99.40121
40	0x42c5be45	98.87162
41	0x42c6304f	99.09435
42	0x42caf541	101.47901
43	0x42cc2bf7	102.08587
44	0x42c41b7a	98.053665
45	0x42beeeba	95.46626
46	0x42c28b1c	97.2717
47	0x42bd8778	94.76459
48	0x42bed710	95.420044
49	0x42bfbcdb	95.86886
50	0x42ba4b9b	93.14767
51	0x42badbc8	93.42926
52	0x42bc7c07	94.24224
53	0x42bf8aa4	95.77078
54	0x42bd1770	94.54578
55	0x42c20548	97.010315
56	0x42bc0512	94.0099
57	0x42ba792c	93.236664
58	0x42bed385	95.413124
59	0x42c10d13	96.525536
60	0x42c2fae4	97.49002
61	0x42c487b6	98.26506
62	0x42be3346	95.10014
63	0x42bd9d97	94.80779
64	0x42bf18e6	95.54863
65	0x42bed051	95.40687
66	0x42be5647	95.16851
67	0x42beb4d0	95.35315
68	0x42bb2033	93.56289
69	0x42bc385a	94.11006
70	0x42b8bcce	92.36876
71	0x42b92b00	92.583984
72	0x42b71de2	91.558365
73	0x42b7d083	91.90725
74	0x42b691a5	91.28446
75	0x42b7ebf7	91.96087
76	0x42b90137	92.50237
77	0x42b357eb	89.671715
78	0x42b39fa6	89.81181
79	0x42b6069f	91.01293
80	0x42b9a27d	92.81736
81	0x42b7a2e9	91.818184
82	0x42bc5fe4	94.18729
83	0x42b75e01	91.6836
84	0x42b3bbfe	89.86717
85	0x42b2d915	89.42399
86	0x42b32ac4	89.58353
87	0x42b27b5f	89.24096
88	0x42b608d9	91.01728
89	0x42b495d0	90.2926
90	0x42af8056	87.750656
91	0x42ae8787	87.2647
92	0x42af78fe	87.73631
93	0x42b326f4	89.57608
94	0x42b12a50	88.58264
95	0x42b05b64	88.1785
96	0x42affe83	87.99709
97	0x42aee85a	87.45381
98	0x42ae74cc	87.22812
99	0x42aa5b3a	85.17818
100	0x42ab8a5f	85.770256
101	0x42afc1a0	87.878174
102	0x42ab04d0	85.5094
103	0x42a99de3	84.80837
104	0x42a7871f	83.76391
105	0x42a87fd3	84.24966
106	0x42ac8345	86.256386
107	0x42a70247	83.50445
108	0x42a4114c	82.03378
109	0x42a3b600	81.85547
110	0x42a5d30e	82.91222
111	0x42a40c69	82.02424
112	0x42a31486	81.540085
113	0x429f7586	79.72954
114	0x42a05baf	80.17907
115	0x429fffcb	79.999596
116	0x429f5856	79.67253
117	0x429ea8a4	79.32938
118	0x429ddb56	78.92839
119	0x429f1ec2	79.560074
120	0x429e6f60	79.21753
121	0x42995e15	76.683754
122	0x429973e7	76.72637
123	0x4297e71e	75.9514
124	0x4297c582	75.88576
125	0x4297ba00	75.86328
126	0x4294f8f4	74.48624
127	0x4291daa3	72.927025
128	0x428f36ed	71.60728
129	0x428f44dd	71.6345
130	0x428e86b4	71.26309
131	0x429134f4	72.603424
132	0x42936bae	73.71031
133	0x429015fb	72.04293
134	0x428c6d5f	70.213615
135	0x428b1e9b	69.55978
136	0x42894b55	68.64713
137	0x42890109	68.50202
138	0x4287c989	67.89362
139	0x4285ffc0	66.99951
140	0x42848b01	66.27149
141	0x4281b205	64.847694
142	0x42846a9a	66.208206
143	0x4283424c	65.629486
144	0x428308dd	65.51731
145	0x4282c0f7	65.376884
146	0x42820fcd	65.03086
147	0x4280c1b5	64.378334
148	0x427d9932	63.399605
149	0x42768517	61.62997
150	0x4275493c	61.321518
151	0x42712104	60.28224
152	0x426f97c9	59.898228
153	0x426c1017	59.015713
154	0x42680157	58.00131
155	0x425f3550	55.802063
156	0x42579c58	53.90268
157	0x42568365	53.628315
158	0x4258f16a	54.235756
159	0x425a4197	54.564053
160	0x425708b5	53.758503
161	0x4257477d	53.819813
162	0x42530429	52.754063
163	0x424b0c5e	50.762077
164	0x4250f670	52.24066
165	0x42513c0d	52.308643
166	0x424e320c	51.548874
167	0x42481991	50.024967
168	0x42403599	48.05234
169	0x423c3c34	47.058792
170	0x423c255f	47.036495
171	0x4231701e	44.35949
172	0x422cb772	43.179146
173	0x4228c605	42.19338
174	0x4225f8e7	41.49307
175	0x42287c4c	42.121384
176	0x422754bf	41.83276
177	0x4221881a	40.38291
178	0x421f23da	39.78501
179	0x421e3c84	39.559097
180	0x4218693a	38.10276
181	0x42178f6f	37.89007
182	0x421248ba	36.571022
183	0x420e23df	35.53503
184	0x42111387	36.26907
185	0x420e3443	35.551037
186	0x42098f85	34.390156
187	0x42025fe6	32.59365
188	0x420193d3	32.39436
189	0x41fe260d	31.76858
190	0x41ec5d95	29.545694
191	0x41e536d4	28.651772
192	0x41db38c2	27.402714
193	0x41d59d78	26.701889
194	0x41d1d91c	26.23101
195	0x41cc3bd1	25.529207
196	0x41b48b9d	22.56817
197	0x418ed696	17.854778
198	0x40e615c1	7.1901555
199	0x40a9dd3b	5.3082557
200	0x4097aceb	4.739858
201	0x408bfffd	4.3749986
202	0x4086b975	4.210139
203	0x40831dcd	4.097388
204	0x40724356	3.7853599
205	0x40501d36	3.251783
206	0x404000a1	3.0000384
207	0x40408ce7	3.0086
208	0x403681d4	2.851674
209	0x402487e9	2.5707953
210	0x40218a23	2.5240562
211	0x4026ee67	2.608301
212	0x40190505	2.3909314
213	0x40056646	2.0843673
214	0x3febff5e	1.8437307
215	0x3fca97ee	1.5827615
216	0x3fc740ae	1.5566614
217	0x3fb72b13	1.431002
218	0x3f96601a	1.1748078
219	0x3f563c31	0.83685595
220	0x3efbe99f	0.49201676
221	0x3ea18ab3	0.31551132
222	0x3d815503	0.06315043
223	0x3be327de	0.006932243
224	0x3bcde1b4	0.0062830094
225	0x3bc82376	0.006107743
226	0x3bc284fc	0.005936263
227	0x3bbd0e45	0.0057695233
228	0x3bbbe184	0.0057336707
229	0x3bae1f5d	0.0053137974
230	0x3baea594	0.005329797
231	0x3b9d16ee	0.004793993
232	0x3ba45329	0.0050147963
233	0x3ba310cb	0.004976367
234	0x3b9c64c6	0.0047727553
235	0x3b9b1021	0.0047321473
236	0x3b9b6c47	0.0047431323
237	0x3b9f7d12	0.0048672045
238	0x3ba9f1ea	0.005186309
239	0x3b998bec	0.0046858694
240	0x3b8fd95b	0.0043899245
241	0x3b87aa14	0.004140148
242	0x3b7d965b	0.0038694355
243	0x3b691ba5	0.0035569456
244	0x3b54c031	0.0032463188
245	0x3b4ba928	0.0031076167
246	0x3b482b8f	0.003054354
247	0x3b477151	0.0030432532
248	0x3b477151	0.0030432532
249	0x3b477151	0.0030432532
250	0x3b477151	0.0030432532
251	0x3b477151	0.0030432532
252	0x3b477151	0.0030432532
253	0x3b477151	0.0030432532
254	0x3b477151	0.0030432532
255	0x3b477151	0.0030432532

layers.model.recurrent_stack.rnn.weight_ih_l0 f4 [200, 257]
0	0x3c8f8595	0.017519752
1	0x3df57c13	0.11986556
2	0xbd139435	-0.036030013
3	0x3cbfcacc	0.02341213
4	0xbd137d1c	-0.036007985
5	0x3bbccf8d	0.0057620467
6	0xbdb2c673	-0.087292574
7	0x3d701374	0.058612302
8	0x3c93ab5b	0.018026045
9	0xbd9b2a2f	-0.07576405
10	0xbd5535be	-0.052053206
11	0xbdd897a5	-0.10575799
12	0x3d1b07c2	0.037849195
13	0x3d4c46bd	0.04987215
14	0x3d17cfdd	0.03706347
15	0xbe075956	-0.13217673
16	0x3d21c795	0.039496977
17	0x3c9aa09f	0.018875418
18	0x3d69f60b	0.05711941
19	0xbd9fc05f	-0.07800364
20	0x3d4a2991	0.049356047
21	0x3d4752a7	0.048662808
22	0xbdafdf14	-0.08587471
23	0x3df597e1	0.11991859
24	0x3d1d3b98	0.03838691
25	0x3e1eb8f3	0.1550024
26	0xba95164f	-0.0011374446
27	0x3d67bc7f	0.05657625
28	0x3ce01a9e	0.027356442
29	0xbdbea901	-0.09309579
30	0xbc1ab4c8	-0.009442516
31	0xbc11c584	-0.008897189
32	0x3cbde037	0.023178203
33	0xbcc48729	-0.02399023
34	0xbd726efd	-0.059187878
35	0xbdc1dd3e	-0.09466027
36	0xbc7ce439	-0.015435272
37	0xbd937f74	-0.07202044
38	0xbdaa5d72	-0.083186045
39	0x3bb785f5	0.0056006857
40	0x3db7f12e	0.08981548
41	0x3d479fee	0.048736505
42	0xbc99d887	-0.018780006
43	0x3caa0e5e	0.020758804
44	0x3cb26470	0.021776408
45	0x3dc6efb5	0.09713689
46	0x3da50cce	0.08059083
47	0xbcaac98a	-0.020848054
48	0xbdc02c31	-0.09383429
49	0xbd36531a	-0.044512846
50	0x3c0e173e	0.008672534
51	0x3cab68de	0.020924028
52	0xbd9be47a	-0.07611938
53	0xbdc6ae80	-0.09701252
54	0x3c130d40	0.008975327
55	0x3d6e5b00	0.058192253
56	0x3c93d3e6	0.018045377
57	0xbd577bee	-0.052608423
58	0xbde05283	-0.10953238
59	0x3c6b511b	0.014362599
60	0xbc13b4a8	-0.00901524
61	0xbd763c16	-0.060115896
62	0xbe055f3d	-0.13024612
63	0x3d269843	0.04067255
64	0x3ce81b2a	0.028333265
65	0xbdb100ec	-0.08642754
66	0xbd28c53e	-0.04120373
67	0xbd6538bc	-0.05596231
68	0x3dac019a	0.08398743
69	0xbe08d0bc	-0.13360876
70	0xbd1ec145	-0.038758535
71	0xbd15bece	-0.03655892
72	0xbc51ec04	-0.012812618
73	0xbcf6db4c	-0.030133866
74	0x3d8f8f3c	0.07009742
75	0x3c87fb9a	0.016599465
76	0x3cc0c662	0.023532096
77	0xbd150b45	-0.0363877
78	0x3d9096ee	0.070600376
79	0x3dfb2988	0.12263781
80	0xbdb4314b	-0.087984644
81	0x3db8d681	0.090252884
82	0xbe09fcdf	-0.13475369
83	0xbce89164	-0.02838964
84	0x3d51f826	0.051262043
85	0x3d9b5dc7	0.07586246
86	0xbdba2723	-0.09089496
87	0xbe1d24cc	-0.15346068
88	0xbc78542a	-0.015156785
89	0x3de5764c	0.11204204
90	0x3ddfde95	0.10931126
91	0x3ded6b2a	0.115927055
92	0xbd33e459	-0.04391894
93	0x3dc1cd3e	0.09462975
94	0xbd36f5ae	-0.044667892
95	0x3daae6ed	0.08344827
96	0x3dc255e4	0.094890386
97	0xbd87661a	-0.06611271
98	0x3ceecf11	0.029151471
99	0xbd02f055	-0.03196748
100	0xbcb8a113	-0.022537744
101	0xbdd83978	-0.10557836
102	0xbb41c882	-0.0029568975
103	0xbd914ea4	-0.07095078
104	0x3c9c5370	0.019082755
105	0xbac9dfc7	-0.0015401774
106	0x3e509bc5	0.20371921
107	0xbdb1de19	-0.0868494
108	0xbc0c1609	-0.008550175
109	0x3d26c6c2	0.040716894
110	0x3ba851cf	0.0051367055
111	0xbd775942	-0.060387857
112	0xbbf033c7	-0.007330391
113	0x3d3c75e7	0.046010878
114	0xbc1cda36	-0.00957351
115	0x3d9d9d3a	0.07696004
116	0xbcd749ec	-0.026280366
117	0x3c11aa40	0.008890688
118	0xbb9c8cd5	-0.0047775307
119	0xbda36195	-0.07977597
120	0xbe2d7531	-0.16939236
121	0x3d707613	0.058706354
122	0x3d025545	0.0318196
123	0x3d40cd45	0.04707076
124	0x3d548897	0.051888075
125	0x3db7028d	0.089360334
126	0x3dba3541	0.090921886
127	0xbd429a06	-0.04751017
128	0x3cb2d6c7	0.02183093
129	0x3ca37847	0.019954814
130	0x3df6b2f8	0.12045854
131	0xbe2100e5	-0.15722997
132	0x3d7fbd17	0.06243619
133	0xbd5cb919	-0.05388746
134	0x3d0187dd	0.03162371
135	0x3dee3420	0.11631036
136	0x3d0b615d	0.0340284
137	0x3cb9337c	0.022607557
138	0x3d2a8202	0.04162789
139	0x3d4a01b9	0.04931805
140	0xbcbfe5e4	-0.02342505
141	0x3d7b1551	0.061299626
142	0x3bb8c3a9	0.005638559
143	0xbd900d63	-0.07033803
144	0xbe0b11f4	-0.13581067
145	0x3da03d32	0.07824172
146	0xbe38d802	-0.1805115
147	0x3dd4c170	0.10388458
148	0xbc9ba6e6	-0.019000482
149	0x3d24b17c	0.040208325
150	0xbd4c05b0	-0.04981011
151	0xbd93e2eb	-0.072210155
152	0xbe13a9e3	-0.14420275
153	0x3d658a4e	0.0560401
154	0xbde64b43	-0.11244824
155	0xbdef7409	-0.11692054
156	0xbb89d5b2	-0.0042063827
157	0xbd9d20be	-0.07672261
158	0x3d3474cc	0.0440567
159	0x3ad9687b	0.0016586924
160	0xbc19a319	-0.009377264
161	0xbe1a0869	-0.1504227
162	0xbd66add4	-0.05631812
163	0xbda9cff5	-0.08291618
164	0xbc8e48ca	-0.017368693
165	0x3e02d725	0.12777384
166	0x3b841884	0.004031243
167	0xbd176601	-0.036962513
168	0xbd616036	-0.055023395
169	0xbd90220c	-0.07037744
170	0x3cee18c3	0.029064542
171	0x3ddfe922	0.109331384
172	0x3d4696ac	0.048483536
173	0xbe07f3c3	-0.13276581
174	0x3d671f21	0.05642617
175	0xbd8ca8b5	-0.06868116
176	0x3dc6939c	0.09696123
177	0xbd243a18	-0.040094465
178	0xbe1cca57	-0.15311562
179	0xbe088db5	-0.13335307
180	0x3d9b80de	0.07592939
181	0x3d804a6d	0.062641956
182	0x3c82da67	0.015973283
183	0x3c9ffaf5	0.019528845
184	0xbd8b5aa8	-0.06804401
185	0xbc26d94b	-0.010183643
186	0x3deb356c	0.11484799
187	0xbd39be28	-0.045347363
188	0x3bd65fb6	0.0065421714
189	0x3e0754fe	0.13216016
190	0x3c335ffe	0.010948179
191	0xbe06793f	-0.13132189
192	0xbd00b7c4	-0.031425253
193	0x3d9356bc	0.07194278
194	0xbd085b5f	-0.033290263
195	0x3a40ed0a	0.00073595403
196	0xbd1b1f19	-0.037871454
197	0x3a9b5be8	0.0011852952
198	0xbe067c32	-0.13133314
199	0xbc8e794a	-0.01739182
200	0x3ccaced6	0.02475683
201	0x3df0370a	0.11729248
202	0xbc338477	-0.010956875
203	0xbd42df3a	-0.047576167
204	0xbc24fb23	-0.010069641
205	0xbda2c937	-0.07948535
206	0xbd97958e	-0.07401572
207	0xbd692536	-0.056920253
208	0x3cc9f3fe	0.024652477
209	0x3b3b410e	0.002857271
210	0x3c1ef7b9	0.009702616
211	0x3d52dad4	0.051478222
212	0x3c83b16e	0.016075816
213	0xbc49c55a	-0.012315119
214	0x3d5c4de7	0.05378523
215	0xbdfd93db	-0.12381717
216	0x3daf69fc	0.08565137
217	0x3d8d4728	0.068983376
218	0x3c18ef72	0.009334432
219	0x3cc989b0	0.024601787
220	0x3d5563eb	0.052097242
221	0xbdbcf7ff	-0.09226989
222	0x3db05664	0.08610228
223	0x3ccf01f8	0.025269493
224	0xbd8f40dc	-0.06994793
225	0xbd79de88	-0.061003238
226	0x3e265b8f	0.16245864
227	0x3cdf5056	0.027259987
228	0x3dac0e31	0.08401144
229	0xbd45128f	-0.048113402
230	0xbc9a97cd	-0.018871212
231	0xbd7a5c52	-0.0611232
232	0xbcf317ef	-0.029674498
233	0x3dcdff72	0.10058488
234	0xbb8fd800	-0.004389763
235	0xbd3265cf	-0.043554123
236	0x3d52201e	0.05130016
237	0x3bb9f134	0.0056745056
238	0x3b2f044e	0.0026705447
239	0xbcb2c85e	-0.021824058
240	0x3d892dc7	0.066981845
241	0xbd380f05	-0.0449362
242	0xbd138261	-0.03601301
243	0x3d7aaccc	0.06119995
244	0xbd9cf8a7	-0.07664614
245	0x3db6bd0e	0.08922778
246	0xbcdf431f	-0.027253686
247	0x3d34a0db	0.044098716
248	0x3d82564f	0.06364118
249	0xb98d91b4	-0.00027002173
250	0xbd3bb4d4	-0.045826748
251	0xbdbbf805	-0.09178165
252	0x3d62da7d	0.055384148
253	0x3df7c141	0.12097407
254	0xbd7cf493	-0.06175668
255	0xbdbcc0cb	-0.0921646

layers.model.recurrent_stack.rnn.weight_hh_l0 f4 [200, 50]
0	0xbced0b25	-0.028935978
1	0x3d9a014d	0.07519779
2	0xbc5b5354	-0.013386566
3	0xbe23f589	-0.16011633
4	0xbd20f9a3	-0.039300572
5	0x3ca339d1	0.01992503
6	0xbc4c0938	-0.01245337
7	0xbc7bbbcb	-0.015364598
8	0xbd3cd73f	-0.046103712
9	0x3e008f17	0.12554584
10	0xbd758fa4	-0.05995144
11	0xbdc673c6	-0.09690051
12	0x3d61b4a1	0.0551039
13	0x3d05f303	0.032702457
14	0xbd562b5a	-0.052287437
15	0xbd816c49	-0.06319482
16	0xbdd905aa	-0.105967835
17	0x3d199835	0.03749867
18	0xbe0f1b3f	-0.13975237
19	0x3dc51b48	0.09624344
20	0x3dfa596d	0.12224088
21	0x3d9d26f7	0.076734476
22	0xbd4d2904	-0.050087944
23	0x3c890217	0.01672463
24	0x3ced88e2	0.028995935
25	0x3c6ce2f6	0.014458409
26	0x3e0fdd0a	0.14049163
27	0x3d820646	0.06348853
28	0xbd53d7ef	-0.051719602
29	0x3cfe3dac	0.031035267
30	0x3d36244e	0.044468217
31	0xbdf88264	-0.12134245
32	0xbdedaff4	-0.11605826
33	0x3e5d1c26	0.21592769
34	0xbe2fd303	-0.17170338
35	0xbdaf8340	-0.08569956
36	0xbe18a773	-0.14907627
37	0x3d93a19d	0.0720856
38	0xba6c1800	-0.0009006262
39	0x3c48a658	0.012246691
40	0xbe077ec2	-0.13231948
41	0x3d007149	0.031358037
42	0xbd6bfa2e	-0.057611637
43	0x3d326edf	0.043562766
44	0xbc041b61	-0.008063168
45	0x3d8123c7	0.06305652
46	0x3d1981af	0.03747719
47	0xbda3f4e7	-0.08005696
48	0xbca2d9d9	-0.019879268
49	0xbd35388e	-0.044243388
50	0xbdc18785	-0.094496764
51	0xbca61dc3	-0.020277863
52	0xbd1d270e	-0.038367324
53	0x3d17dca3	0.03707565
54	0xbcac62b5	-0.02104316
55	0xbe13516b	-0.14386527
56	0x3c7cd83c	0.015432414
57	0x3df2ea12	0.118610516
58	0x3c7fa7d6	0.01560398
59	0x3dbb1f4f	0.09136831
60	0xbcdb533a	-0.026773084
61	0x3e2b5d02	0.16734698
62	0xbd41bcf1	-0.04729933
63	0x3b22b377	0.0024826208
64	0xbb8ea5e8	-0.0043532737
65	0xbcc97423	-0.024591511
66	0xbd547b28	-0.051875263
67	0xbdb04241	-0.08606387
68	0x3c3c8f6c	0.011508804
69	0xbbe644e1	-0.007027254
70	0xbcc45cb0	-0.023969978
71	0xbdbcbda3	-0.09215858
72	0x3c2bcec6	0.01048631
73	0xbe15385c	-0.1457228
74	0x3e475da8	0.19469321
75	0xbd6ce756	-0.057837807
76	0xbd0b3825	-0.03398909
77	0xbd0b6ca8	-0.03403917
78	0xbcd26e09	-0.025687234
79	0xbcdbd5f4	-0.02683542
80	0xbe58af53	-0.21160631
81	0x3cefff8e	0.029296663
82	0x3d0e9a35	0.034815032
83	0xbcb1291e	-0.021626052
84	0x3c8ba0ee	0.01704451
85	0xbc1f9ea4	-0.009742413
86	0x3c651652	0.013982372
87	0xbbf90296	-0.007599185
88	0xbd42cc3f	-0.047558066
89	0xbe17be03	-0.14818577
90	0xbd820724	-0.06349018
91	0x3d9a8339	0.0754456
92	0x3d3a750d	0.045521785
93	0xbd582eeb	-0.05277912
94	0xbe685143	-0.22687249
95	0x3d4002bf	0.04687762
96	0xbe210613	-0.15724973
97	0x3dd82a09	0.105548926
98	0xbe1c60f2	-0.15271357
99	0xbdec99d4	-0.11552778
100	0xbd5f17cb	-0.05446605
101	0x3b1aa5a2	0.002359726
102	0x3ce83055	0.028343359
103	0x3d8059f6	0.06267159
104	0x3d267f78	0.040648907
105	0x3caca9c6	0.021077048
106	0xbcb62e89	-0.022238987
107	0xbdcb6bc6	-0.099326655
108	0xbdd73eb1	-0.10510004
109	0x3d8830fd	0.06649969
110	0xbcb1297b	-0.021626225
111	0x3d0dffe9	0.034667883
112	0xb9f8b9c9	-0.00047440667
113	0x3d3bbfde	0.045837276
114	0xbe1129f8	-0.14176166
115	0xbcab428f	-0.020905761
116	0x3d2bd8c5	0.041954774
117	0x3dc071f8	0.09396738
118	0x3e2f2bc4	0.17106539
119	0xbcd57e07	-0.026061071
120	0xbe587af0	-0.21140647
121	0x3e39deea	0.18151441
122	0xbdcc5d35	-0.09978715
123	0x3df734ca	0.120706156
124	0x3d6ff15b	0.058579784
125	0xbde6b09c	-0.11264154
126	0xbcf00221	-0.02929789
127	0x3d10f11f	0.0353862
128	0x3d8bfd60	0.06835437
129	0x3d8f3b67	0.06993752
130	0xbd48a0ff	-0.048981663
131	0x3bef7aa4	0.007308321
132	0x3cbc9f4d	0.02302518
133	0x3d5782e5	0.052615065
134	0x3d0e025b	0.034670215
135	0x3e300af8	0.17191684
136	0x3d911119	0.07083339
137	0x3db19ad0	0.08672106
138	0x3dc1b743	0.094587825
139	0x3cb5938e	0.022165086
140	0x3cd6eed6	0.026236933
141	0xbe18d476	-0.14924797
142	0xbe1d68cb	-0.15372007
143	0x3e6bf5c2	0.23042968
144	0xbd0a54b5	-0.03377219
145	0xbdc24d76	-0.09487431
146	0xbd9fd917	-0.078050785
147	0xbe3f61c6	-0.18689641
148	0x3daa0d05	0.083032645
149	0x3baa9cd1	0.0052066823
150	0x3b71eb02	0.0036913757
151	0x3dedf253	0.11618485
152	0x3c45f7f5	0.012083043
153	0xbd9ed4a4	-0.07755402
154	0x3c70049b	0.0146495355
155	0x3db8133b	0.08988043
156	0x3cd7c4b2	0.026338909
157	0x3d119a1b	0.035547357
158	0xbd968639	-0.0734982
159	0x3c11e334	0.008904267
160	0xbd1fb344	-0.03898932
161	0xbe19a97a	-0.15006056
162	0x3d50b5ba	0.050954558
163	0x3dcab90f	0.098985784
164	0x3d9cb69d	0.07652018
165	0xbd509e0d	-0.05093198
166	0xbe26a221	-0.16272785
167	0xbceb9937	-0.028759582
168	0x3bd18b6f	0.0063947956
169	0x3d575a5e	0.052576415
170	0xbdd1bc88	-0.102410376
171	0xbd311552	-0.043233223
172	0xbd8808f6	-0.06642334
173	0xbe2c3169	-0.16815723
174	0x3cf65253	0.030068552
175	0x3d49b9fe	0.04924964
176	0xbe2cb69e	-0.16866538
177	0x3d80f438	0.06296581
178	0x3e0ee6d2	0.13955238
179	0x3c6897e2	0.014196368
180	0xbd9d3679	-0.076764055
181	0x3b99ae78	0.0046899877
182	0xbd99ed7e	-0.07516001
183	0xbcc7e9b0	-0.024403423
184	0x3d8d6b12	0.06905188
185	0xbd8556fa	-0.0651073
186	0xbdc543a7	-0.09632044
187	0x3e4fc3db	0.20289557
188	0xbe0d6646	-0.13808545
189	0xbe46455d	-0.19362397
190	0xbd862ac2	-0.06551124
191	0xbd950692	-0.07276644
192	0xbc95c03e	-0.018280145
193	0xbd48d667	-0.049032595
194	0xbe277886	-0.1635457
195	0x3d2de255	0.042452175
196	0x3d8bb9f2	0.06822576
197	0xbe5973bb	-0.21235554
198	0x3c0c7b9b	0.008574392
199	0x3db53445	0.0884786
200	0x3d71a257	0.05899271
201	0xbdf0f203	-0.1176491
202	0xbd843610	-0.06455624
203	0x3dc6bc33	0.09703865
204	0x3ca01b4e	0.01954427
205	0x3d9987fb	0.07496639
206	0xbd7c2fa3	-0.061568867
207	0xbd52d922	-0.051476605
208	0xbe614b9d	-0.220015
209	0xbd762505	-0.0600939
210	0x3e07e772	0.13271883
211	0x3d8bec05	0.068321265
212	0x3e08c0fc	0.13354868
213	0x3d8f6f26	0.07003622
214	0x3dcceb68	0.10005838
215	0xbd1a2591	-0.037633482
216	0xbe37ea1e	-0.17960402
217	0x3dd7a7db	0.10530063
218	0x3cb77448	0.022394314
219	0xbd6f92bd	-0.05848955
220	0x3d4434f0	0.047902048
221	0xbd706060	-0.05868566
222	0x3d904224	0.07043865
223	0xbd6d5abc	-0.05794786
224	0xbe2913eb	-0.16511504
225	0x3e507a7a	0.20359221
226	0x3d6675bd	0.056264628
227	0xbe37755d	-0.17915864
228	0xbd28b9a6	-0.041192673
229	0xbd0d662f	-0.034521278
230	0x3e2e10bb	0.1699857
231	0x3d500714	0.050788
232	0xbc8d36f7	-0.017238123
233	0xbb7cfc9c	-0.0038602715
234	0xbd321244	-0.04347445
235	0xbc66982a	-0.014074365
236	0x3dbec7af	0.093154304
237	0xbe00e024	-0.12585503
238	0x3d60383d	0.054741133
239	0x3cdaaace	0.026692774
240	0xbe31250f	-0.17299293
241	0xbe1c588c	-0.15268153
242	0x3dadb702	0.084821716
243	0x3e1ed22f	0.15509866
244	0x3b3d0207	0.002884032
245	0x3d0a116e	0.03370803
246	0xbdc6a89a	-0.09700127
247	0xbcb2effc	-0.02184295
248	0xbd08dc3e	-0.033413164
249	0x3dbb9b4c	0.0916048
250	0xbc948039	-0.018127548
251	0xbe2e6a71	-0.17032792
252	0xbe451baf	-0.19248842
253	0x3d9a2b63	0.075278066
254	0xbd10649d	-0.035252202
255	0xbc806110	-0.015671283

layers.model.recurrent_stack.rnn.bias_ih_l0 f4 [200]
0	0x3c474050	0.012161329
1	0x3c192f22	0.009349616
2	0xbc66c450	-0.0140848905
3	0x3c471f29	0.012153425
4	0xbc85f6c3	-0.016353017
5	0xbc14c031	-0.009079025
6	0x3be71ae4	0.007052766
7	0x3c37fee9	0.011230209
8	0x3c9b319e	0.018944558
9	0x3ab7f5e4	0.0014035073
10	0x3c562dce	0.013072444
11	0xbca2d892	-0.01987866
12	0xbc381e3c	-0.011237677
13	0x3c07249a	0.008248473
14	0xbb1d6a7f	-0.0024019775
15	0x3c3b5e99	0.011436128
16	0xbc9f142f	-0.019418804
17	0xbc6558cd	-0.013998223
18	0x3c704ab6	0.01466625
19	0x3c486a8b	0.012232433
20	0x3c5e637b	0.013573523
21	0xba4c17cc	-0.00077855284
22	0x3c87ddd3	0.016585266
23	0xbbba9bac	-0.005694827
24	0xbca429b7	-0.020039422
25	0xbb8c3e06	-0.0042798547
26	0x3cba88f8	0.02277039
27	0x39fb266b	0.00047903074
28	0xbcc6adde	-0.024252828
29	0x3c129532	0.008946704
30	0xbcff78b7	-0.031185491
31	0x3c67a1c6	0.014137691
32	0xbb8d55d5	-0.0043132105
33	0x3c98449e	0.018587407
34	0xbc445928	-0.011984147
35	0x3c6a09ba	0.014284546
36	0x3c3e2f14	0.011607904
37	0x3b97284e	0.004612959
38	0x3c378042	0.011200013
39	0xbc552ca5	-0.013011132
40	0xbb1df2a8	-0.0024100933
41	0x3aa4941b	0.0012556346
42	0xbc3cdd76	-0.01152741
43	0x3c8b363d	0.016993636
44	0x3c12a7da	0.008951152
45	0x3c2ad0d1	0.010425762
46	0x3ce0487c	0.027378313
47	0x3caec514	0.021334209
48	0xbc5e5a67	-0.013571358
49	0x3c69851f	0.01425293
50	0x3f7e18ad	0.992564
51	0x3f811e11	1.00873
52	0x3f841391	1.0318471
53	0x3f84677b	1.034408
54	0x3f842602	1.0324099
55	0x3f810f7d	1.0082852
56	0x3f823915	1.017367
57	0x3f8445c1	1.0333787
58	0x3f83ce18	1.029727
59	0x3f82cd99	1.0218993
60	0x3f82113d	1.0161511
61	0x3f8014bc	1.0006328
62	0x3f814a33	1.0100769
63	0x3f7e8f6d	0.994376
64	0x3f842cc5	1.0326163
65	0x3f7a608e	0.9780358
66	0x3f80163c	1.0006785
67	0x3f8408df	1.0315207
68	0x3f81e3c8	1.0147638
69	0x3f820afc	1.0159602
70	0x3f81a25f	1.0127677
71	0x3f81a728	1.0129137
72	0x3f81f9ee	1.0154397
73	0x3f8022a8	1.0010576
74	0x3f7e33c5	0.99297744
75	0x3f8329bb	1.024711
76	0x3f8464b8	1.0343237
77	0x3f819819	1.0124542
78	0x3f83f023	1.0307659
79	0x3f8384f3	1.0274948
80	0x3f79d12b	0.9758479
81	0x3f805b8b	1.0027937
82	0x3f7eda90	0.9955225
83	0x3f7eb080	0.9948807
84	0x3f79ee3c	0.9762914
85	0x3f839359	1.0279342
86	0x3f82754e	1.0192049
87	0x3f836d6a	1.0267766
88	0x3f848fca	1.0356381
89	0x3f8173be	1.0113447
90	0x3f849d7d	1.0360562
91	0x3f80dd3a	1.0067513
92	0x3f83f2ac	1.0308433
93	0x3f842e48	1.0326624
94	0x3f844965	1.0334898
95	0x3f7b9d8e	0.98287284
96	0x3f84dbe4	1.0379605
97	0x3f838131	1.0273801
98	0x3f838b23	1.0276836
99	0x3f814860	1.0100212
100	0x3cb2b0cb	0.021812817
101	0xbc8e8a05	-0.017399797
102	0x3d10912a	0.03529469
103	0x3d1b1f20	0.03787148
104	0xbd1e0838	-0.038582057
105	0xbd1ee674	-0.038793996
106	0x3d16620b	0.036714595
107	0x3cfbc172	0.03073189
108	0xbcc36508	-0.023851886
109	0xbd09df62	-0.0336603
110	0x3d09ff10	0.033690512
111	0xbd2eb4e3	-0.042652976
112	0xbd23d94d	-0.040002156
113	0x3d185556	0.037190758
114	0xbd187299	-0.037218664
115	0x3cc309ca	0.023808379
116	0xbd272478	-0.040806264
117	0xbd20b973	-0.03923936
118	0xbd1596f7	-0.036520924
119	0x3c97dd6e	0.018538203
120	0xbd16824c	-0.036745355
121	0xbd217492	-0.03941781
122	0xbd28c253	-0.041200947
123	0x3d1e0c1b	0.038585763
124	0x3cdbc15b	0.026825598
125	0x3d1eec0f	0.03879934
126	0xbd1a8a06	-0.037729286
127	0x3d26831a	0.040652372
128	0xbd190703	-0.037360203
129	0xbd105e51	-0.035246197
130	0xbd1efc35	-0.038814742
131	0xbd20e439	-0.03928015
132	0x3d17dad6	0.037073933
133	0x3d210b70	0.03931755
134	0xbc5cfb22	-0.013487609
135	0xbd171a75	-0.036890466
136	0xbcd4d9cd	-0.025982762
137	0x3d20c654	0.03925164
138	0xbd29073d	-0.04126667
139	0xbd1a9512	-0.03773982
140	0xbd1b25e3	-0.03787793
141	0xbd0065f5	-0.031347234
142	0xbd0bb049	-0.034103666
143	0x3d1942c9	0.037417207
144	0xbd26b78b	-0.040702384
145	0x3d225b6b	0.039637964
146	0xbd16513c	-0.036698565
147	0x3d0f1897	0.03493556
148	0xbd25068f	-0.040289458
149	0x3d1c53af	0.038165744
150	0x3b872edb	0.0041254587
151	0x3c8c4f9c	0.017127804
152	0x3d2b9598	0.04189071
153	0x3d36f6f2	0.0446691
154	0x3d253b39	0.040339682
155	0x3d1eaf35	0.03874131
156	0x3cf3e1d0	0.029770762
157	0x3d259205	0.04042246
158	0x3d2650f8	0.04060456
159	0x3ce43f19	0.027862119
160	0x3cc4d40b	0.024026891
161	0x3d0c7bc1	0.03429771
162	0x3cefcf90	0.029273778
163	0x3d15e472	0.036594816
164	0x3d263432	0.04057712
165	0x3c98b5f6	0.018641453
166	0x3cd3a83c	0.025837056
167	0x3d26a082	0.040680416
168	0x3d294005	0.04132082
169	0x3ccf4506	0.025301468
170	0x3cb7249a	0.02235632
171	0x3cab11d6	0.020882528
172	0x3ceecf00	0.02915144
173	0x3cd16b72	0.02556393
174	0xb9a7dd83	-0.0003201776
175	0x3cf0d5d1	0.02939883
176	0x3d3e4636	0.046453677
177	0x3d146a01	0.036233906
178	0x3d16dfb7	0.036834445
179	0x3d164b40	0.036692858
180	0x3cb61031	0.022224518
181	0x3d2748e7	0.04084101
182	0x3cbf76be	0.02337205
183	0x3cf5bbb6	0.029996734
184	0x3b8e7a4a	0.004348074
185	0x3d0c6109	0.034272227
186	0x3cd8e70b	0.026477357
187	0x3d254820	0.040351987
188	0x3d204426	0.03912749
189	0x3ce82530	0.028338045
190	0x3d04ec6e	0.03245204
191	0x3c6fcd26	0.014636314
192	0x3cdab2dd	0.026696617
193	0x3d094fa8	0.03352323
194	0x3d2308be	0.03980326
195	0x3d094ef2	0.033522554
196	0x3d379e85	0.04482891
197	0x3cfac64d	0.030612135
198	0x3d0f22e1	0.034945372
199	0x3cae74ef	0.021295993

layers.model.recurrent_stack.rnn.bias_hh_l0 f4 [200]
0	0x3c474050	0.012161329
1	0x3c192f22	0.009349616
2	0xbc66c450	-0.0140848905
3	0x3c471f29	0.012153425
4	0xbc85f6c3	-0.016353017
5	0xbc14c031	-0.009079025
6	0x3be71ae4	0.007052766
7	0x3c37fee9	0.011230209
8	0x3c9b319e	0.018944558
9	0x3ab7f5e4	0.0014035073
10	0x3c562dce	0.013072444
11	0xbca2d892	-0.01987866
12	0xbc381e3c	-0.011237677
13	0x3c07249a	0.008248473
14	0xbb1d6a7f	-0.0024019775
15	0x3c3b5e99	0.011436128
16	0xbc9f142f	-0.019418804
17	0xbc6558cd	-0.013998223
18	0x3c704ab6	0.01466625
19	0x3c486a8b	0.012232433
20	0x3c5e637b	0.013573523
21	0xba4c17cc	-0.00077855284
22	0x3c87ddd3	0.016585266
23	0xbbba9bac	-0.005694827
24	0xbca429b7	-0.020039422
25	0xbb8c3e06	-0.0042798547
26	0x3cba88f8	0.02277039
27	0x39fb266b	0.00047903074
28	0xbcc6adde	-0.024252828
29	0x3c129532	0.008946704
30	0xbcff78b7	-0.031185491
31	0x3c67a1c6	0.014137691
32	0xbb8d55d5	-0.0043132105
33	0x3c98449e	0.018587407
34	0xbc445928	-0.011984147
35	0x3c6a09ba	0.014284546
36	0x3c3e2f14	0.011607904
37	0x3b97284e	0.004612959
38	0x3c378042	0.011200013
39	0xbc552ca5	-0.013011132
40	0xbb1df2a8	-0.0024100933
41	0x3aa4941b	0.0012556346
42	0xbc3cdd76	-0.01152741
43	0x3c8b363d	0.016993636
44	0x3c12a7da	0.008951152
45	0x3c2ad0d1	0.010425762
46	0x3ce0487c	0.027378313
47	0x3caec514	0.021334209
48	0xbc5e5a67	-0.013571358
49	0x3c69851f	0.01425293
50	0x3f7e18ad	0.992564
51	0x3f811e11	1.00873
52	0x3f841391	1.0318471
53	0x3f84677b	1.034408
54	0x3f842602	1.0324099
55	0x3f810f7d	1.0082852
56	0x3f823915	1.017367
57	0x3f8445c1	1.0333787
58	0x3f83ce18	1.029727
59	0x3f82cd99	1.0218993
60	0x3f82113d	1.0161511
61	0x3f8014bc	1.0006328
62	0x3f814a33	1.0100769
63	0x3f7e8f6d	0.994376
64	0x3f842cc5	1.0326163
65	0x3f7a608e	0.9780358
66	0x3f80163c	1.0006785
67	0x3f8408df	1.0315207
68	0x3f81e3c8	1.0147638
69	0x3f820afc	1.0159602
70	0x3f81a25f	1.0127677
71	0x3f81a728	1.0129137
72	0x3f81f9ee	1.0154397
73	0x3f8022a8	1.0010576
74	0x3f7e33c5	0.99297744
75	0x3f8329bb	1.024711
76	0x3f8464b8	1.0343237
77	0x3f819819	1.0124542
78	0x3f83f023	1.0307659
79	0x3f8384f3	1.0274948
80	0x3f79d12b	0.9758479
81	0x3f805b8b	1.0027937
82	0x3f7eda90	0.9955225
83	0x3f7eb080	0.9948807
84	0x3f79ee3c	0.9762914
85	0x3f839359	1.0279342
86	0x3f82754e	1.0192049
87	0x3f836d6a	1.0267766
88	0x3f848fca	1.0356381
89	0x3f8173be	1.0113447
90	0x3f849d7d	1.0360562
91	0x3f80dd3a	1.0067513
92	0x3f83f2ac	1.0308433
93	0x3f842e48	1.0326624
94	0x3f844965	1.0334898
95	0x3f7b9d8e	0.98287284
96	0x3f84dbe4	1.0379605
97	0x3f838131	1.0273801
98	0x3f838b23	1.0276836
99	0x3f814860	1.0100212
100	0x3cb2b0cb	0.021812817
101	0xbc8e8a05	-0.017399797
102	0x3d10912a	0.03529469
103	0x3d1b1f20	0.03787148
104	0xbd1e0838	-0.038582057
105	0xbd1ee674	-0.038793996
106	0x3d16620b	0.036714595
107	0x3cfbc172	0.03073189
108	0xbcc36508	-0.023851886
109	0xbd09df62	-0.0336603
110	0x3d09ff10	0.033690512
111	0xbd2eb4e3	-0.042652976
112	0xbd23d94d	-0.040002156
113	0x3d185556	0.037190758
114	0xbd187299	-0.037218664
115	0x3cc309ca	0.023808379
116	0xbd272478	-0.040806264
117	0xbd20b973	-0.03923936
118	0xbd1596f7	-0.036520924
119	0x3c97dd6e	0.018538203
120	0xbd16824c	-0.036745355
121	0xbd217492	-0.03941781
122	0xbd28c253	-0.041200947
123	0x3d1e0c1b	0.038585763
124	0x3cdbc15b	0.026825598
125	0x3d1eec0f	0.03879934
126	0xbd1a8a06	-0.037729286
127	0x3d26831a	0.040652372
128	0xbd190703	-0.037360203
129	0xbd105e51	-0.035246197
130	0xbd1efc35	-0.038814742
131	0xbd20e439	-0.03928015
132	0x3d17dad6	0.037073933
133	0x3d210b70	0.03931755
134	0xbc5cfb22	-0.013487609
135	0xbd171a75	-0.036890466
136	0xbcd4d9cd	-0.025982762
137	0x3d20c654	0.03925164
138	0xbd29073d	-0.04126667
139	0xbd1a9512	-0.03773982
140	0xbd1b25e3	-0.03787793
141	0xbd0065f5	-0.031347234
142	0xbd0bb049	-0.034103666
143	0x3d1942c9	0.037417207
144	0xbd26b78b	-0.040702384
145	0x3d225b6b	0.039637964
146	0xbd16513c	-0.036698565
147	0x3d0f1897	0.03493556
148	0xbd25068f	-0.040289458
149	0x3d1c53af	0.038165744
150	0x3b872edb	0.0041254587
151	0x3c8c4f9c	0.017127804
152	0x3d2b9598	0.04189071
153	0x3d36f6f2	0.0446691
154	0x3d253b39	0.040339682
155	0x3d1eaf35	0.03874131
156	0x3cf3e1d0	0.029770762
157	0x3d259205	0.04042246
158	0x3d2650f8	0.04060456
159	0x3ce43f19	0.027862119
160	0x3cc4d40b	0.024026891
161	0x3d0c7bc1	0.03429771
162	0x3cefcf90	0.029273778
163	0x3d15e472	0.036594816
164	0x3d263432	0.04057712
165	0x3c98b5f6	0.018641453
166	0x3cd3a83c	0.025837056
167	0x3d26a082	0.040680416
168	0x3d294005	0.04132082
169	0x3ccf4506	0.025301468
170	0x3cb7249a	0.02235632
171	0x3cab11d6	0.020882528
172	0x3ceecf00	0.02915144
173	0x3cd16b72	0.02556393
174	0xb9a7dd83	-0.0003201776
175	0x3cf0d5d1	0.02939883
176	0x3d3e4636	0.046453677
177	0x3d146a01	0.036233906
178	0x3d16dfb7	0.036834445
179	0x3d164b40	0.036692858
180	0x3cb61031	0.022224518
181	0x3d2748e7	0.04084101
182	0x3cbf76be	0.02337205
183	0x3cf5bbb6	0.029996734
184	0x3b8e7a4a	0.004348074
185	0x3d0c6109	0.034272227
186	0x3cd8e70b	0.026477357
187	0x3d254820	0.040351987
188	0x3d204426	0.03912749
189	0x3ce82530	0.028338045
190	0x3d04ec6e	0.03245204
191	0x3c6fcd26	0.014636314
192	0x3cdab2dd	0.026696617
193	0x3d094fa8	0.03352323
194	0x3d2308be	0.03980326
195	0x3d094ef2	0.033522554
196	0x3d379e85	0.04482891
197	0x3cfac64d	0.030612135
198	0x3d0f22e1	0.034945372
199	0x3cae74ef	0.021295993
